
Using cuda device
Out[191]:
MultiInputActorCriticPolicy(
  (features_extractor): CustomCNN(
    (cnn): Sequential(
      (0): Conv2d(7, 32, kernel_size=(8, 8), stride=(4, 4))
      (1): ReLU()
      (2): Conv2d(32, 64, kernel_size=(4, 4), stride=(2, 2))
      (3): ReLU()
      (4): Conv2d(64, 64, kernel_size=(3, 3), stride=(1, 1))
      (5): ReLU()
      (6): Flatten(start_dim=1, end_dim=-1)
    )
    (linear_stack): Sequential(
      (0): Linear(in_features=23, out_features=512, bias=True)
      (1): ReLU()
      (2): Linear(in_features=512, out_features=512, bias=True)
    )
    (linear): Sequential(
      (0): Linear(in_features=1536, out_features=512, bias=True)
      (1): ReLU()
      (2): Linear(in_features=512, out_features=82, bias=True)
    )
  )
  (mlp_extractor): MlpExtractor(
    (shared_net): Sequential()
    (policy_net): Sequential()
    (value_net): Sequential(
      (0): Linear(in_features=82, out_features=64, bias=True)
      (1): Tanh()
    )
  )
  (action_net): Sequential()
  (value_net): Linear(in_features=64, out_features=1, bias=True)
)
Logging to runs/v1/PPO_25
------------------------------
| time/              |       |
|    fps             | 29    |
|    iterations      | 1     |
|    time_elapsed    | 347   |
|    total_timesteps | 10240 |
------------------------------
---------------------------------------
| time/                   |           |
|    fps                  | 42        |
…
       'attack_r', 'craft_crafting_table', 'craft_planks', 'craft_stick',
       'craft_torch', 'equip_iron_pickaxe', 'equip_stone_pickaxe',
       'equip_wooden_pickaxe', 'nearbyCraft_furnace',
       'nearbyCraft_iron_pickaxe', 'nearbyCraft_stone_pickaxe',
       'nearbyCraft_wooden_pickaxe', 'nearbySmelt_coal',
       'nearbySmelt_iron_ingot', 'place_cobblestone',
       'place_crafting_table', 'place_dirt', 'place_furnace',
       'place_stone', 'place_torch'], dtype='<U26')
Out[477]: <stable_baselines3.ppo.ppo.PPO at 0x7fe3a6da6310>
Out[478]:
MultiInputActorCriticPolicy(
  (features_extractor): CustomCNN(
    (cnn): Sequential(
      (0): Conv2d(7, 32, kernel_size=(8, 8), stride=(4, 4))
      (1): ReLU()
      (2): Conv2d(32, 64, kernel_size=(4, 4), stride=(2, 2))
      (3): ReLU()
      (4): Conv2d(64, 64, kernel_size=(3, 3), stride=(1, 1))
      (5): ReLU()
      (6): Flatten(start_dim=1, end_dim=-1)
    )
    (linear_stack): Sequential(
      (0): Linear(in_features=23, out_features=512, bias=True)
      (1): ReLU()
      (2): Linear(in_features=512, out_features=512, bias=True)
    )
    (linear): Sequential(
      (0): Linear(in_features=1536, out_features=512, bias=True)
      (1): ReLU()
      (2): Linear(in_features=512, out_features=82, bias=True)
    )
  )
  (mlp_extractor): MlpExtractor(
    (shared_net): Sequential()
    (policy_net): Sequential()
    (value_net): Sequential(
      (0): Linear(in_features=82, out_features=64, bias=True)
      (1): Tanh()
    )
  )
  (action_net): Sequential()
  (value_net): Linear(in_features=64, out_features=1, bias=True)
)
Using cuda device
Out[481]:
MultiInputActorCriticPolicy(
  (features_extractor): CustomCNN(
    (cnn): Sequential(
      (0): Conv2d(7, 32, kernel_size=(8, 8), stride=(4, 4))
      (1): ReLU()
      (2): Conv2d(32, 64, kernel_size=(4, 4), stride=(2, 2))
      (3): ReLU()
      (4): Conv2d(64, 64, kernel_size=(3, 3), stride=(1, 1))
      (5): ReLU()
      (6): Flatten(start_dim=1, end_dim=-1)
    )
    (linear_stack): Sequential(
      (0): Linear(in_features=23, out_features=512, bias=True)
      (1): ReLU()
      (2): Linear(in_features=512, out_features=512, bias=True)
    )
    (linear): Sequential(
      (0): Linear(in_features=1536, out_features=512, bias=True)
      (1): ReLU()
      (2): Linear(in_features=512, out_features=82, bias=True)
    )
  )
  (mlp_extractor): MlpExtractor(
    (shared_net): Sequential()
    (policy_net): Sequential()
    (value_net): Sequential(
      (0): Linear(in_features=82, out_features=128, bias=True)
      (1): Tanh()
      (2): Linear(in_features=128, out_features=128, bias=True)
      (3): Tanh()
    )
  )
  (action_net): Linear(in_features=82, out_features=82, bias=True)
  (value_net): Linear(in_features=128, out_features=1, bias=True)
)
Using cuda device
Out[484]:
MultiInputActorCriticPolicy(
  (features_extractor): CustomCNN(
    (cnn): Sequential(
      (0): Conv2d(7, 32, kernel_size=(8, 8), stride=(4, 4))
      (1): ReLU()
      (2): Conv2d(32, 64, kernel_size=(4, 4), stride=(2, 2))
      (3): ReLU()
      (4): Conv2d(64, 64, kernel_size=(3, 3), stride=(1, 1))
      (5): ReLU()
      (6): Flatten(start_dim=1, end_dim=-1)
    )
    (linear_stack): Sequential(
      (0): Linear(in_features=23, out_features=512, bias=True)
      (1): ReLU()
      (2): Linear(in_features=512, out_features=512, bias=True)
    )
    (linear): Sequential(
      (0): Linear(in_features=1536, out_features=512, bias=True)
      (1): ReLU()
      (2): Linear(in_features=512, out_features=82, bias=True)
    )
  )
  (mlp_extractor): MlpExtractor(
    (shared_net): Sequential()
    (policy_net): Sequential()
    (value_net): Sequential(
      (0): Linear(in_features=82, out_features=128, bias=True)
      (1): ReLU()
      (2): Linear(in_features=128, out_features=128, bias=True)
      (3): ReLU()
    )
  )
  (action_net): Linear(in_features=82, out_features=82, bias=True)
  (value_net): Linear(in_features=128, out_features=1, bias=True)
)
